data.pth (torch, 5015 bytes, 6 tensors)

l1.weight f4 [8, 54]
000000 d6 f2 15 3f dc f3 98 bd 47 88 bf be 98 81 b9 bd
       0.58573663 -0.074683875 -0.3740866 -0.09057921
000010 f8 99 76 be 5f 8d 71 3f 11 9d 80 be 07 71 2a be
       -0.24082172 0.9435634 -0.25119832 -0.16644679
000020 23 1a d4 be 37 9e 8f be 01 54 64 be 0b 58 71 bc
       -0.4142619 -0.28050396 -0.2229767 -0.014730464
000030 74 31 cb 3c 69 5e 3f 3c 90 cd 41 be 0c c5 d5 3c
       0.024803855 0.011680224 -0.18926072 0.026094936
000040 2e ed 33 be d0 c3 6a 3f 05 d3 d6 3e 4c a1 d3 be
       -0.17570946 0.91705036 0.4195787 -0.41333997
000050 86 f9 dc 3e 11 21 0c bf 06 31 15 bf a1 04 b1 be
       0.4315912 -0.54737955 -0.5827793 -0.34573844
000060 b7 f5 b5 bd 60 a7 9b be 74 6c e3 3e 30 e8 de be
       -0.08884757 -0.30401134 0.4441868 -0.4353652
000070 2c 07 c5 3e ba f8 f8 be 6d 4f 22 3f 25 c6 1f be
       0.38482034 -0.48627263 0.63402444 -0.1560293
000080 53 48 14 3f 51 e1 c2 be 9e 5f 00 be 27 b8 ef bc
       0.5792286 -0.38062528 -0.12536475 -0.029262615
000090 39 d9 eb 3e cd 0d ca be 40 17 b5 bd 0f 47 db bd
       0.46064165 -0.39463654 -0.08842325 -0.10706913
0000a0 fd 46 22 3f 8e 6c 0a 3f f1 22 8c bd a2 ef 68 be
       0.6338957 0.5407189 -0.06842602 -0.22747663
0000b0 c1 29 5d be 1f 1c 6b be 91 fd 63 3f 99 81 1c 3f
       -0.21597959 -0.22959946 0.89058787 0.6113525
0000c0 ef 6b e4 3d 26 e2 ba 3e f8 87 00 be 12 bd 8b 3e
       0.11153399 0.36500663 -0.12551868 0.27292687
0000d0 c0 fd 73 be af 0c 8d 3e 17 47 91 be 4a 0c 24 3f
       -0.23827267 0.2754874 -0.2837455 0.6408125
0000e0 41 55 df be 02 bd 4b 3e c5 c6 f2 3d 3b d7 1b bf
       -0.4361973 0.1989632 0.118543185 -0.6087529
0000f0 df b5 8b bd 2e 0c 30 be 7d 7c 04 bf 98 f8 77 be
       -0.068217985 -0.17192146 -0.51752454 -0.24215925
000100 2b 01 94 3e e9 56 3b 3e fe ce e1 3e 26 bf e0 3d
       0.2890714 0.18294872 0.44103235 0.10973959
000110 cb 25 09 3f 88 1f 0b 3e 5d bf 8b 3e 0f d0 1b bf
       0.5357329 0.13586247 0.27294436 -0.6086435
000120 f6 a9 af 3e 07 0b f1 3e 8b 77 1d be 72 6c c1 3e
       0.34309357 0.47078726 -0.15377633 0.3777805
000130 ec a6 ea 3e 6e 4d af 3e 4f eb 6c 3d 96 bd 9a 3e
       0.45830476 0.34238762 0.057841595 0.30222768
000140 5b 7a 0d 3f 8d 3d 11 3f 4d e7 32 3e d0 e4 22 3f
       0.55264825 0.56734544 0.17471047 0.6363039
000150 46 6f c1 be 5f 4f e8 bc bc 40 8f be 90 cb d5 be
       -0.37780207 -0.02835816 -0.27979076 -0.41756868
000160 bf 66 3a 3f 38 15 31 3b 68 e5 ad 3e d6 a7 fe be
       0.7281303 0.0027020704 0.33964086 -0.49737424
000170 68 dc e6 bd 5a 46 58 bd 58 1c e9 be 06 f8 0c 3f
       -0.11272508 -0.052801467 -0.45529437 0.55065954
000180 d3 ef dd 3d 39 5e 03 3f 8b 4d a3 bb d9 44 31 3f
       0.108367585 0.5131565 -0.004983609 0.6924568
000190 81 5c 2f bf c9 72 2f be 4e bd 04 3e c7 ab 0e 3f
       -0.68500525 -0.17133631 0.12962839 0.5573086
0001a0 d1 99 d1 bb 4c 76 e9 3e 60 2a 37 be 88 50 93 3e
       -0.00639651 0.45598066 -0.17887259 0.28772378
0001b0 21 f5 19 3f a0 dd d7 3e 47 dd 04 3e 75 d4 8f be
       0.6013966 0.42161274 0.12975036 -0.2809178
0001c0 76 47 2f 3c 61 c8 82 be f6 c5 bc 3e 28 83 82 3e
       0.01069819 -0.25543502 0.36869782 0.2549069
0001d0 0f 76 dc 3d 6a 42 95 3d e4 a1 88 be dd ba 27 be
       0.107647054 0.07288058 -0.26686013 -0.16379876
0001e0 29 51 b5 3e a7 32 33 be aa ba f8 3e c0 4f aa be
       0.35413483 -0.17499791 0.48579913 -0.3326397
0001f0 22 8f a9 be 5f f6 6a be 09 ea b2 3e d8 8d 13 bf
       -0.33117014 -0.22945546 0.3494418 -0.5763831
000200 05 02 d2 3e 5a e0 1d bf 76 e3 1d bf 94 86 f7 be
       0.41017166 -0.6167046 -0.616752 -0.48344862
000210 c9 54 9b bd c4 d1 96 be d6 81 0a 3f 36 ee b1 3e
       -0.07584531 -0.29456913 0.54104364 0.34752053
000220 db 61 60 3e a0 6b 86 3d a6 c9 0e be 88 a7 ed bb
       0.21912329 0.065634966 -0.1394411 -0.0072526373
000230 20 26 7e 3e ad f6 b8 3d 1d b1 9e 3e e6 44 a6 be
       0.24819231 0.09031425 0.30994502 -0.3247444
000240 69 f9 c4 3e 51 45 a5 3e 34 4d ac 3e c9 79 78 3e
       0.38471535 0.32279447 0.3365265 0.24265207
000250 01 46 a0 be 1c 5c 8f 3e de 82 ca bd 58 2c a0 3e
       -0.3130341 0.2799996 -0.09888242 0.31283832
000260 71 18 17 3e aa df d1 3e 7f 44 59 3f e1 7e b3 3e
       0.14755417 0.40990955 0.8487014 0.35057738
000270 d3 f8 6e 3e 78 de c8 3e eb 31 97 bd 09 05 d6 3e
       0.23337106 0.3923223 -0.07382568 0.41800717
000280 71 1b 06 3e 1b 16 c4 3e 47 c0 c7 bd f7 97 87 be
       0.13096406 0.38298115 -0.09753471 -0.26483127
000290 99 e0 be bd d7 7d 8d 3e ba 66 a2 3e b3 5a eb 3e
       -0.09320182 0.2763507 0.31719 0.45967636
0002a0 7b cf a6 be 71 c4 31 be 89 2d 0d bf 27 8c 75 be
       -0.3258017 -0.17360093 -0.55147606 -0.23979245
0002b0 08 ff 0a 3f bb b1 a3 3e 10 15 d1 bd 5e bc 80 3e
       0.54295397 0.31971535 -0.102090955 0.25143713
0002c0 31 82 e0 bd af 1d 8a 3e f0 37 0b 3f fb 1d ef 3e
       -0.10962332 0.26975772 0.5438223 0.4670256
0002d0 f5 bf 79 3e 13 cb 03 3f 41 7a 72 be 5c 1f 0b 3f
       0.24389632 0.5148174 -0.23679449 0.54344726
0002e0 d3 a8 24 3f 66 23 2d 3f ac 45 2e 3e 3f 32 fc 3e
       0.64320105 0.6763214 0.17018765 0.49257085
0002f0 9a 77 a9 be d1 e7 52 be 15 f3 77 be 78 65 2c be
       -0.3309906 -0.20596243 -0.24213822 -0.16835582
000300 5d 19 d0 3e 33 dc 83 3e fc 6f bc bb 3b 5b a6 bd
       0.4064435 0.25753936 -0.0057506543 -0.081228696
000310 ee 5a 7d be 0e a7 03 3e 83 12 94 be 8a df 01 bf
       -0.24741718 0.12856695 -0.28920373 -0.5073172
000320 f6 72 41 be 61 51 92 be 05 69 b0 3e 87 4e 84 3c
       -0.1889151 -0.28577712 0.34455124 0.016150726
000330 b6 6d 6e 3e a1 7a 14 be d8 0b 6d 3e 8d f5 86 be
       0.23284039 -0.14499904 0.2314905 -0.26359215
000340 69 4f 10 bf ca c0 17 be ef 41 c7 3e 58 78 97 be
       -0.5637117 -0.14819637 0.3891749 -0.29584002
000350 45 61 ad 3e 0f eb a7 3d e3 12 0d be ed 9c c6 bc
       0.33863273 0.08199131 -0.13776736 -0.02424475
000360 7b 23 45 be 16 7a b0 be fe 72 d1 3e f5 d4 8a 3e
       -0.19251816 -0.34468144 0.40908045 0.27115598
000370 02 93 18 3f 14 bc 8c be a9 71 77 3e 9f 43 bb 3e
       0.59599316 -0.27487242 0.24164452 0.36575028
000380 e1 6f cb 3e 56 cb b3 3e aa 97 0e 3f 32 bf 9b 3d
       0.39733794 0.3511607 0.5570017 0.07604827
000390 c5 bd 1c 3f ab ce d5 3d 38 7e 38 bb 79 68 ee 3d
       0.61227065 0.104398094 -0.0028151404 0.1164102
0003a0 2f 3d c5 3e b7 a7 84 be 91 41 0e 3f 1b 76 60 3f
       0.38523242 -0.25909206 0.55568796 0.87680215
0003b0 b5 89 13 be a9 a0 2d 3f e3 58 0c 3f 75 08 11 3f
       -0.14408 0.6782327 0.5482313 0.5665353
0003c0 67 24 e8 3d 94 c7 02 3f 7e c5 14 3f ed 8c 13 bf
       0.11335068 0.5108578 0.5811385 -0.5763691
0003d0 f5 71 b5 3e 71 a9 df be ea 08 86 be 89 9a f1 3d
       0.35438505 -0.4368396 -0.26178676 0.11797053
0003e0 db 5d 60 3d 34 66 6b 3e 8f c9 29 be 8d 3e 81 bc
       0.054777008 0.22988206 -0.16580795 -0.015776897
0003f0 cf 1b e0 3e ab e1 06 3e b7 d9 8b 3e 7e 0e cd 3e
       0.43771216 0.13172023 0.2731454 0.4005012

l1.bias f4 [8]
000000 ed 35 46 3f 19 d3 1b 3f 30 ea 1d 3f 38 05 44 3f
       0.77426034 0.60868984 0.61685467 0.76570463
000010 38 a0 1d 3f 00 75 a8 3e b5 40 4d 3e 3a a6 0d 3f
       0.615726 0.32901764 0.20044215 0.55331767

l2.weight f4 [8, 8]
000000 9c ee 26 3e 50 e4 09 bf 0d 51 78 3f 6a 1f 70 bf
       0.1630196 -0.53864 0.96998674 -0.93797934
000010 2e ff 15 3f 63 92 7e 3f 28 cd c4 3e d1 23 a6 bd
       0.585925 0.9944212 0.38437772 -0.081123
000020 58 27 d1 3f 4e 50 f9 be 89 79 52 3f cb 50 e2 3e
       1.6340132 -0.4869408 0.822167 0.44202265
000030 07 6c 42 3e 32 51 c4 3e 6a 40 7a bf 71 c6 80 bc
       0.18986522 0.38343197 -0.9775454 -0.015719624
000040 f2 68 cf 3d 4e 11 7d 3f 9c d4 c5 be c8 5d 8a 3f
       0.101274386 0.9885453 -0.3863877 1.080987
000050 ca 79 e4 3e 1d 9d 2a bf 1f d0 97 be 66 8f 46 3d
       0.44624168 -0.66645986 -0.2965097 0.0484766
000060 a7 9d c5 bd 6a 54 23 3f 62 65 1e 3c d9 c1 45 3f
       -0.096492104 0.6380068 0.009667726 0.77248913
000070 c9 58 8d 3f 76 75 3d be a1 bc 92 bf 81 e4 57 bf
       1.104272 -0.18501839 -1.1463815 -0.84333044
000080 8c 56 99 be 8b 0b 7f be fc ec 97 be cd d2 b7 3f
       -0.29948843 -0.24906747 -0.29672992 1.4361206
000090 e8 87 66 3f 3b af 73 3e b1 f7 59 3f fb 98 b3 3f
       0.90051126 0.23797314 0.8514357 1.4031061
0000a0 ca bb df bd 23 17 81 3f 61 95 4f 3f 66 78 85 3e
       -0.1092449 1.0085186 0.8108731 0.2606842
0000b0 8b 20 3d be 61 8a d6 bd 7e 6b 72 3e d0 64 4f bf
       -0.18469445 -0.104756124 0.23673818 -0.810132
0000c0 88 12 98 be 4a 7f 42 3f b6 3e d1 3e 67 c2 04 bf
       -0.29701638 0.7597548 0.40868157 -0.51859134
0000d0 96 f8 f5 3e 23 e2 1f 3f 22 68 2e 3f fd 1d 71 3f
       0.4804122 0.6245443 0.68127644 0.94186383
0000e0 c1 b3 ff be 50 26 70 3f 3c dc 83 3f 65 5e 01 bf
       -0.4994183 0.9380846 1.0301585 -0.5053466
0000f0 23 ac 2a 3f 8f 54 8b 3e f7 75 80 bd 6d 0b fa be
       0.6666891 0.2721295 -0.062725 -0.48836842

l2.bias f4 [8]
000000 d5 70 91 3e 82 3c 1f 3f e0 90 3a 3f 1d 7a 35 be
       0.28406397 0.622017 0.7287731 -0.17722364
000010 0f 82 e4 3e 1c 6f 10 3f 49 a2 02 bf c9 0a be 3e
       0.44630477 0.5641954 -0.5102888 0.37117603

l3.weight f4 [7, 8]
000000 c4 2d 73 bf f2 99 5e bf be 6c e8 3c 6e 4a 94 bf
       -0.9499171 -0.8695365 0.028372165 -1.1585214
000010 9d 2d 1f 3f 4f ef 71 bf cc c8 05 3f 5b 90 2c bf
       0.62178975 -0.9450578 0.52259517 -0.6740777
000020 16 ca ac be 64 e4 83 bf 67 55 cd 3e bc b6 b6 be
       -0.3374793 -1.0304074 0.4010422 -0.3568629
000030 b3 09 91 bf a4 e5 39 3f 98 bd b4 3e cf 7a eb 3e
       -1.1331085 0.7261603 0.353009 0.45992133
000040 b9 1f 4c bf 52 ab 4e 3f 65 e5 13 3f e5 19 ef bf
       -0.79735905 0.80730164 0.57771903 -1.8679777
000050 10 e3 de 3e 86 8c 45 bf ba d0 a5 bf 96 96 1a bf
       0.4353261 -0.77167547 -1.2954323 -0.60386026
000060 84 7e 0f bf 28 ce 2d bf 35 6b 35 3f 49 55 51 3f
       -0.5605242 -0.67892694 0.7086671 0.8177076
000070 94 1f 61 3e 7d 4c 6f 3e a3 52 8d bf 99 f8 34 3d
       0.21984702 0.23369022 -1.1040844 0.044182394
000080 3b 85 4a 3e d3 0f 83 3e 85 cc e4 be 53 3d 51 3f
       0.19777386 0.2559801 -0.44687286 0.817342
000090 8b 3d 74 bf 37 d0 ca be 17 68 07 3f 1e 41 6e 3e
       -0.9540641 -0.3961198 0.52893203 0.23267028
0000a0 b2 29 4a 3f b8 25 0c bf 46 b8 71 bf d3 f5 5c bf
       0.7896987 -0.54745054 -0.94421804 -0.863126
0000b0 43 f4 99 3e 31 ee 28 bf c5 2e c0 3e 27 17 ba 3e
       0.3006917 -0.6598845 0.37535682 0.3634579
0000c0 82 c5 39 3f cf c4 70 3f 8a ab 72 bf 65 41 b0 bf
       0.72567 0.94050306 -0.94793 -1.3769957
0000d0 87 a4 b0 bf 6d 3a aa 3e 56 2c 2c bf d6 20 9f 3d
       -1.380021 0.332477 -0.6725515 0.07769935

l3.bias f4 [7]
000000 1f b5 78 3e 08 fe 80 be 93 d8 93 3d fe 64 16 3e
       0.24287842 -0.2519381 0.07219043 0.14686963
000010 c6 e6 0d bf 2c 5c 64 be 74 30 df 3e
       -0.5543026 -0.22300786 0.43591654
